data2.pth (torch, 6260 bytes, 6 tensors)

l1.weight f4 [8, 70]
000000 63 b0 7a be 4c 30 eb 3d 5e 65 d0 be 9c 90 c9 bd
       -0.24481349 0.11483821 -0.40702337 -0.09842035
000010 0c 5c a1 be 79 a7 c6 be f3 dc dd 3e 4f 6f 89 3b
       -0.3151554 -0.38799646 0.43332633 0.004194177
000020 7c b0 c0 be 45 73 82 3f 15 53 b4 be ed cf 7e be
       -0.37634647 1.0191427 -0.35219637 -0.24884005
000030 9d fe 2b bf 62 e6 a8 be 2d 1f 66 be c6 13 10 be
       -0.67185384 -0.32988268 -0.2247283 -0.14070043
000040 9c 8a bc 3e 30 e4 53 be f8 43 f4 3e 9d b3 cd be
       0.368245 -0.20692515 0.47708106 -0.40176097
000050 55 d2 cd be a6 f0 ab 3d 3a 9c 46 3e 82 c6 aa 3e
       -0.40199533 0.083955094 0.19395533 0.33354574
000060 6d 0a bc 3e 3a 57 7b 3f b6 2e 48 be 3e ee 1f 3f
       0.36726704 0.9817997 -0.19549069 0.62472904
000070 bc 16 af bd 8a 10 13 3f 9b b6 fe 3e 32 af d2 bd
       -0.08549258 0.5744711 0.49748692 -0.10287322
000080 c3 e1 2c 3f f0 d0 cb 3d d7 b5 2e 3e 83 85 9d bb
       0.67531985 0.09951961 0.17061554 -0.0048071756
000090 8e b2 44 3e 6e 6b fa bd 51 d3 24 3e 54 fe 41 3f
       0.19208738 -0.12227522 0.16096236 0.757787
0000a0 54 9d 8e be c2 a3 65 3e 03 b7 81 be e6 7c d2 be
       -0.27854407 0.2242575 -0.2533494 -0.41110915
0000b0 21 39 5e bd cc 72 d1 3e d8 86 b2 bd 62 6d 0d bf
       -0.0542537 0.40907896 -0.08717126 -0.5524503
0000c0 af dd 9b be 67 d9 a1 be 9d 35 7d be 8e 45 13 3f
       -0.3044257 -0.31611177 -0.24727483 0.5752801
0000d0 d5 ec 83 3e eb b4 8a 3e 66 34 a5 3d 1e 7b 70 be
       0.25766626 0.27091154 0.08066635 -0.23484465
0000e0 a6 2e 10 be c6 54 a4 be 35 a6 9b bd 28 f4 c0 be
       -0.14080295 -0.32095927 -0.07600061 -0.37686276
0000f0 85 69 0f be b8 f1 f0 3d ad 06 7d be a2 9a 77 be
       -0.14005096 0.11764854 -0.24709578 -0.24180081
000100 51 53 37 3e 93 0f ac be 17 69 2c 3e 5d df 69 be
       0.17902876 -0.33605632 0.16836964 -0.22839113
000110 fc 35 34 3e a9 3d eb be 64 16 43 3f f6 54 37 3e
       0.17598718 -0.4594548 0.7620604 0.17903504
000120 1f 2e 86 3e f5 cb 37 3f 3e e7 3d be b1 50 5b 3e
       0.26207063 0.7179559 -0.18545243 0.214175
000130 2d a2 56 be 16 b5 0d bf fa 33 e3 bd 58 7d 7f be
       -0.20960303 -0.5535444 -0.11093898 -0.24950159
000140 3a 40 44 3e 43 cb 95 3d f3 88 81 3d 04 6c 59 be
       0.19165125 0.0731416 0.06324949 -0.21232611
000150 b3 1f 25 bd 47 50 ad 3e 1a ca 54 be db 3b 71 3e
       -0.040313434 0.3385031 -0.2078022 0.2355799
000160 66 30 1d 3f 90 41 bc bc bb 6b 20 3d c8 1e 36 3f
       0.61401975 -0.022980481 0.03916524 0.7114072
000170 51 07 3b 3c 0f e8 21 3f af 33 82 be 6c a9 aa be
       0.011415319 0.6324472 -0.25430056 -0.33332384
000180 60 da b0 bc 73 98 ec be 48 6a ce 3e 11 97 ec be
       -0.021588504 -0.4621006 0.4031546 -0.46209005
000190 b0 99 ec be e0 64 a6 be b9 80 13 3d 33 ce bb 3e
       -0.46211004 -0.32498837 0.03601143 0.36680755
0001a0 fc 91 05 3e a3 7f 8a be 8b ac 5a 3d e8 a7 68 3c
       0.1304397 -0.27050504 0.053387206 0.014200188
0001b0 b9 23 b1 3e 86 d5 dd bc db 15 08 3f 57 bb 0c 3f
       0.34597567 -0.027079355 0.5315835 0.5497336
0001c0 26 b4 b2 3e 33 8e 12 3e c9 0b 93 3e 51 8d e8 3e
       0.34903067 0.14312057 0.2871993 0.45420316
0001d0 ba a7 d8 bd e6 e5 a9 bd 11 f9 91 be ed 14 76 bc
       -0.10578866 -0.08295803 -0.28510335 -0.0150196375
0001e0 f0 f6 1f bd 3a a8 0e be 09 74 0c bf 77 de f9 3e
       -0.039053857 -0.13931361 -0.54864556 0.4880254
0001f0 f7 33 0f 3c f7 49 a3 3e 89 5d 0e 3f b4 96 1c 3f
       0.008740417 0.31892368 0.55611473 0.61167455
000200 f2 f5 49 3e ae ce 7d 3f 3d 80 14 3f 5b 19 c4 be
       0.19722727 0.99143493 0.58008176 -0.38300595
000210 e2 ae 2f be d7 1d 0f bc 2f d0 a8 3e 2a d7 e4 3e
       -0.17156556 -0.008735142 0.3297133 0.44695407
000220 f7 b7 87 be fa cc 9a bd 5c 48 64 3d e3 fb 35 3f
       -0.26507542 -0.075586274 0.05573307 0.71087474
000230 c7 e2 9c be f9 02 16 3f 14 e2 ae bd e8 dd 9d 3e
       -0.30641767 0.58598286 -0.08539215 0.30833364
000240 5a 42 ea bd 37 35 eb be 14 7e 48 be ce 37 49 bd
       -0.11438437 -0.45939037 -0.19579345 -0.049125485
000250 8b 21 14 be 9a 4b 63 3f 96 7a 3d be 80 fb 72 be
       -0.1446592 0.88787234 -0.18503794 -0.23728752
000260 8d 1f ea 3e 64 7e bc be cf 86 04 be cd a3 e3 be
       0.45727196 -0.36815178 -0.1294205 -0.44460908
000270 83 2e a8 bd bb fc 9c be bd 1c de 3e ca e6 14 be
       -0.082119964 -0.30661568 0.433813 -0.14541164
000280 8b 87 d3 3e be 7c bb 3e 82 6c e0 3e 51 5e 89 3e
       0.4131435 0.36618608 0.43832785 0.2682977
000290 58 19 3f be ae d1 3d 3f b3 0f 66 be 8a 21 a1 be
       -0.18662012 0.7414807 -0.22466926 -0.314709
0002a0 58 ca ac bd 51 48 af be 51 67 dc be ce 6f b7 bd
       -0.084370315 -0.3423486 -0.43047574 -0.08956872
0002b0 e7 c8 8b 3e 65 d8 04 3f 0e 79 4e be 22 c8 00 3f
       0.27301714 0.5189269 -0.20163366 0.5030538
0002c0 ee 9b 33 3f c0 0c ff 3e 7a 79 08 3f 43 40 e0 3e
       0.70159805 0.49814415 0.5331036 0.43799028
0002d0 4d 49 b0 be 5a 09 15 3f 47 8e ae be f4 35 f4 3d
       -0.34430924 0.58217394 -0.34092924 0.11924353
0002e0 d3 0c 11 3f 71 fc c2 3e 55 77 00 3f dc 3a 80 3e
       0.56660193 0.38083223 0.50182086 0.25044906
0002f0 c8 bf d6 bd 86 2f be 3d ba b1 ae 3c d8 21 0d 3f
       -0.10485798 0.09286408 0.021324981 0.55129766
000300 dc d4 1e 3f a9 0f c8 3e d1 ee 07 3f 57 ef fb be
       0.6204355 0.39074448 0.5309878 -0.4920604
000310 9c 02 85 bd 94 fc 04 3f ca 09 1e 3f c6 0f 00 bf
       -0.06494638 0.51947904 0.61733687 -0.5002407
000320 73 d5 d3 bd eb fc 67 3e 5e 41 1a bf cc bf b5 3e
       -0.103434466 0.22655074 -0.6025599 0.35497892
000330 83 43 9a 3e 19 19 f3 bd 88 67 13 3f a7 ff 08 3e
       0.30129632 -0.118700214 0.5757985 0.13378774
000340 42 0a a3 3d 28 cf 73 be 5f 5c 23 3e 8c 95 08 3e
       0.07960941 -0.23809493 0.15953206 0.13338298
000350 2a d7 bb bd 55 1a 0b bf e7 07 74 3e 01 38 2d 3f
       -0.09171899 -0.54337054 0.2383114 0.6766358
000360 27 9e 9e 3e 12 32 30 3f 30 ba c5 3e c4 97 2b bf
       0.30980036 0.688264 0.38618612 -0.6702845
000370 27 1d 49 bd eb f2 02 3e 60 3e ce be ea dd ef 3e
       -0.049100067 0.12787978 -0.40281963 0.46848994
000380 5a 23 01 3e 4c 7c 48 3f 03 76 95 3e 00 16 28 3f
       0.12611142 0.7831466 0.29191598 0.6565857
000390 1e f9 d9 3b 74 51 0e 3f 4f 12 a1 bd a7 4d d5 3d
       0.0066520115 0.5559304 -0.0786482 0.10415202
0003a0 8b 72 bf bd 79 bd 42 3e 05 1a ee 3e 16 e5 31 bf
       -0.09348019 0.1901759 0.46504226 -0.6949018
0003b0 a4 fb df 3e dc 14 1b 3f c1 4e 03 3f 92 2a 03 3f
       0.43746674 0.60578704 0.51292044 0.5123683
0003c0 29 ac e3 3e c2 55 76 3e f2 4b d6 3e 29 15 c0 3c
       0.44467285 0.24056152 0.41854817 0.02344759
0003d0 f0 a3 70 3e f5 19 46 bf 7e 1d 0f bf 10 5b 97 be
       0.23500037 -0.7738336 -0.55904377 -0.29561663
0003e0 5c 98 01 bf f8 ca 02 bf ce 40 87 be 0a d0 da 3c
       -0.50623107 -0.51090956 -0.2641663 0.026710529
0003f0 26 e1 0c 3f 95 5d e9 3c c5 ad 2a be 45 ab 10 3e
       0.5503105 0.028487006 -0.1666785 0.14127834

l1.bias f4 [8]
000000 cb a9 85 3f 4c 94 ec 3e da f9 2e 3f 8c e3 31 3f
       1.0442442 0.46206892 0.68349993 0.69487834
000010 93 94 33 3f 63 13 71 3f d9 fd 26 3f 35 a2 08 3f
       0.7014858 0.94170207 0.6523109 0.5337251

l2.weight f4 [8, 8]
000000 dc 32 0b bf f4 8b 7c 3f fb 55 7e bd df f6 c6 3f
       -0.5437448 0.9865105 -0.062093716 1.5544089
000010 40 02 5b 3f e9 b4 07 3f 0f 27 f4 3e 7a 89 49 bf
       0.8555031 0.5301042 0.4768605 -0.787254
000020 7b d5 ff 3e d4 13 19 bf af 73 c5 be ed 98 bd 3f
       0.4996756 -0.5979588 -0.38564822 1.4812294
000030 ef de 67 3d 9e cd cd 3f 49 18 21 3e 3c 34 ae 3d
       0.05660909 1.6078374 0.1573192 0.08506057
000040 7f 00 b3 be 40 af b3 be 21 84 49 be 76 a7 4e 3e
       -0.34961316 -0.35094643 -0.1967931 0.20181069
000050 e8 bf 31 be 99 6a a3 bc 27 8d d5 bd 2d c2 38 be
       -0.17358363 -0.01994829 -0.10427313 -0.18042822
000060 b2 e5 b5 3f 5a 7d 84 bf bf 4d c4 3d 20 16 33 3f
       1.4210722 -1.0350754 0.095851414 0.69955635
000070 a6 cc a7 bf be f0 69 3f ae 35 1c 3f bd 15 08 3f
       -1.3109329 0.9138297 0.6101941 0.5315817
000080 9f b1 b3 bf 9b e9 b4 be c0 4c 21 3f 49 90 02 bf
       -1.4038581 -0.35334477 0.63007736 -0.5100141
000090 c2 1c a0 3e 22 ee 3c 3f 76 ca 62 3f 7c 13 b7 3f
       0.3127194 0.7380086 0.8859018 1.4302821
0000a0 01 1e a0 3e 05 35 19 3f 33 e0 10 3f 92 5e 64 bf
       0.3127289 0.59846526 0.565921 -0.892068
0000b0 18 7f 72 3f 71 72 e8 be bd 4b a8 3f 52 06 43 3e
       0.9472518 -0.45399812 1.3148113 0.1904538
0000c0 16 47 e7 3f e6 1c 7e be 11 1a a3 3f 55 1f 71 bf
       1.8068569 -0.24815711 1.274233 -0.94188434
0000d0 04 1b 0f 3f d8 fc f2 3e 3a f9 ad be 34 cc 37 3e
       0.559006 0.4745853 -0.33979207 0.17948991
0000e0 03 97 52 3e 1e 2e 2c 3f 12 01 88 3f 4a db 77 bf
       0.20565419 0.6725787 1.0625327 -0.96818984
0000f0 8a 70 28 3f b9 1c 97 bf d3 6c 43 bc ca 97 c3 bc
       0.6579672 -1.180564 -0.011927801 -0.02387609

l2.bias f4 [8]
000000 fd 89 d8 3e 68 20 36 3f 79 bd b4 be 28 5b aa 3d
       0.42292777 0.711432 -0.35300806 0.08318168
000010 1f b2 2a 3e f1 3e e9 3e ad bd 04 3f a7 d8 d3 bd
       0.1666951 0.45555833 0.5185192 -0.103440575

l3.weight f4 [10, 8]
000000 eb ff 86 3e 5c e8 83 bf a2 54 8b be 4c be 8e bf
       0.26367125 -1.0305285 -0.27213007 -1.1151824
000010 8f 67 8d bf 75 b1 99 3e d7 df 1d 3e 3f 26 bb 3e
       -1.1047229 0.300182 0.1541742 0.36552617
000020 7f 28 9c bf 6a 4c 9a bf 6c 8b be 3d 06 da c0 bf
       -1.2199858 -1.205457 0.09303936 -1.5066535
000030 d4 be d2 3e b0 cd 4e be e3 54 20 3f 58 b0 08 3f
       0.41161215 -0.20195651 0.62629527 0.5339408
000040 ac 87 73 bf 0d dd 11 be ac 62 ab 3d a6 72 a8 bd
       -0.95128894 -0.1424448 0.083684295 -0.082249925
000050 df 77 21 bf 2c a6 a6 3e 0d 53 3b 3f da 28 2a bf
       -0.63073534 0.32548654 0.731736 -0.66468585
000060 84 fd 22 bf c8 df 28 3f da b4 32 3d b0 ef 31 3f
       -0.63668084 0.65966463 0.043629505 0.6950636
000070 86 d8 90 bf 69 e6 b3 bf d4 ab fa 3d e9 63 3d bf
       -1.1316078 -1.4054691 0.12239805 -0.73980576
000080 c1 80 05 bf e5 5e f4 3d 5f a5 35 3e 6a 35 10 3f
       -0.5214959 0.11932162 0.17738865 0.56331503
000090 52 b1 05 3f a9 6b e4 be db e5 be bf 83 cb aa be
       0.52223694 -0.44613388 -1.4913896 -0.33358392
0000a0 42 71 fd bf 0f 9c 4f be ea 06 39 3e 8e de 7e 3e
       -1.9800189 -0.20274375 0.18069044 0.24889585
0000b0 1a 72 3d 3f dd 71 63 be b4 66 d2 ba 06 c8 bc bf
       0.7400223 -0.22211404 -0.0016052336 -1.4748542
0000c0 25 9b 6d be a7 62 b4 bf fa 09 4e be 83 cd 61 bf
       -0.23203714 -1.4092606 -0.20120993 -0.8820421
0000d0 89 2c 06 3f 6b 61 26 3f ab 6b 5f bf af 7e 2f bd
       0.52411705 0.649924 -0.87273663 -0.042845424
0000e0 0a fc 4a be 28 9a 81 3e 5a 6b 5c bd 16 8d d1 bf
       -0.19822708 0.25312924 -0.053813316 -1.6371181
0000f0 1e bb 2b 3f 3b 16 ef 3c b4 9f e0 bd f2 49 a9 bf
       0.67082393 0.029185405 -0.10967961 -1.3225691
000100 11 bf d9 3e d1 63 19 3f ef 20 17 be 43 23 7d be
       0.42528585 0.5991793 -0.14758657 -0.24720483
000110 12 3f 3c be ec 25 cb bf b0 8a bc bf be 9c 94 be
       -0.18383434 -1.5870948 -1.4729824 -0.29025835
000120 27 00 71 3f 1a e1 ab 3e 66 21 b4 be 3c bf e2 bf
       0.9414086 0.33570176 -0.3518173 -1.771461
000130 af 41 be bf 8e 12 1a 3e 76 e8 1f bf e5 29 b3 bf
       -1.4863795 0.1504614 -0.6246408 -1.399716

l3.bias f4 [10]
000000 4c 55 f0 be 84 19 0c 3c 51 3f 10 be 11 e0 cd 3e
       -0.46940076 0.008551005 -0.14086653 0.40210012
000010 d9 8b e3 be 89 5c 93 bd 35 a3 16 3e aa 6d 36 3e
       -0.44442633 -0.07195384 0.14710696 0.17815271
000020 58 93 c3 3c 1e 1a df 3e
       0.02387397 0.43574613
